pytorch/inference/state_dict_model.pt (torch, 777937 bytes, 27 tensors)

conv.0.weight f4 [20, 1, 5, 5]
0	0x3cd8018c	0.026367925
1	0x3cc0ae58	0.023520634
2	0x3d1c81db	0.038209777
3	0x3e132c90	0.14372468
4	0x3df4d176	0.11954014
5	0xbde76e40	-0.113003254
6	0xbe45b09d	-0.19305654
7	0xbe63491f	-0.22195862
8	0xbdd7f6c5	-0.105451144
9	0xbe3370e3	-0.17523532
10	0x3da0fdbc	0.07860896
11	0xbc873971	-0.016506882
12	0xbdfe9f8c	-0.12432775
13	0x3e161e85	0.1466008
14	0xbe01033d	-0.12598892
15	0x3dfe8462	0.12427594
16	0x3d64a48d	0.05582099
17	0xbde22269	-0.110417195
18	0xbd950153	-0.07275643
19	0x3dbb9cd1	0.0916077
20	0x3e58091f	0.2109723
21	0x3dd75af2	0.10515393
22	0x3dc4cca5	0.09609345
23	0x3c58e722	0.0132387
24	0xbc357ea9	-0.011077561
25	0xbd1e4bc2	-0.038646467
26	0xbe185b58	-0.14878595
27	0xbd533ef8	-0.051573724
28	0x3c43449c	0.011918213
29	0xbcecce15	-0.028906861
30	0x3c5c4a13	0.013445395
31	0xbe38c7e3	-0.18045
32	0xbd9f747b	-0.07785889
33	0xbe446f94	-0.19183189
34	0x3e3db809	0.18527235
35	0x3d7d2b33	0.061808776
36	0x3e81e925	0.25373188
37	0x3e2d62df	0.16932248
38	0x3e4c1e32	0.19933394
39	0xbda50539	-0.08057637
40	0x3e062112	0.13098553
41	0x3e352749	0.17690767
42	0xbe80a6a9	-0.25127152
43	0x3dee4490	0.11634171
44	0x3d196664	0.037451163
45	0x3c5c041d	0.013428715
46	0xbdb7c57e	-0.089732155
47	0x3e5f6c70	0.2181871
48	0xbe07d5b1	-0.1326511
49	0x3d936a9e	0.0719807
50	0x3e3eabf8	0.18620288
51	0xbd90556a	-0.070475414
52	0x3cd838c6	0.02639426
53	0xbe2f462c	-0.17116612
54	0x3cdd6578	0.027025923
55	0x3e59889c	0.21243519
56	0xbe04b0f0	-0.12958121
57	0x3e115b1b	0.1419491
58	0xbe01cdf8	-0.12676227
59	0x3e5c86ee	0.21535847
60	0x3e077f46	0.13232145
61	0x3db38fb1	0.08767641
62	0xbe035f47	-0.12829314
63	0x3d84b7bc	0.06480357
64	0xbe03a4c8	-0.12855828
65	0xbc2a0f86	-0.010379678
66	0xbda7adb4	-0.08187428
67	0xbdd49302	-0.10379602
68	0xbd6e848a	-0.058231868
69	0x3e34a21e	0.17639968
70	0xbe28b2a0	-0.1647439
71	0x3df1c17a	0.11804481
72	0xbcf728df	-0.030170856
73	0xbe018649	-0.12648882
74	0xbdd421bb	-0.10357996
75	0x3d89805b	0.06713935
76	0xbdf1fc09	-0.1181565
77	0xbe351c0f	-0.17686485
78	0xbe0a5eba	-0.13512698
79	0xbe17da38	-0.14829338
80	0xbdc2f866	-0.095200345
81	0xbd7f1863	-0.062279116
82	0x3db28f2b	0.087187134
83	0xbdd5859d	-0.10425875
84	0x3c783e54	0.015151579
85	0xbd78af02	-0.060713775
86	0x3d137828	0.03600326
87	0xbd1b64f8	-0.03793809
88	0xbce135b0	-0.02749142
89	0x3dfabb84	0.12242797
90	0xbc1a7821	-0.009428055
91	0x3d4d519b	0.050126653
92	0x3e142326	0.14466533
93	0xbe0a325b	-0.13495772
94	0x3e329d5d	0.17442842
95	0xbcd43677	-0.025904877
96	0xbc64693e	-0.013941107
97	0x3e741a49	0.23838152
98	0x3e425cad	0.18980666
99	0x3e8a164e	0.26970142
100	0xbd38a72a	-0.045081295
101	0x3e5700f0	0.20996451
102	0xbdef8a5d	-0.116963126
103	0xbdea209c	-0.11432001
104	0xbe156299	-0.14588393
105	0x3e31f507	0.17378627
106	0x3d510175	0.05102678
107	0x3e01f425	0.1269079
108	0xbc41c7fa	-0.011827463
109	0xbe3c9a67	-0.18418275
110	0x3e2f8ae9	0.17142834
111	0x3be3fce8	0.006957639
112	0x3d22376d	0.03960364
113	0x3e135484	0.14387709
114	0xbe5c8826	-0.21536312
115	0x3ca840ce	0.020538714
116	0x3d57b74d	0.052665044
117	0xbd0c3f48	-0.034240037
118	0xbc8aaaf9	-0.01692723
119	0xbdcc3283	-0.09970572
120	0xbe18f937	-0.14938818
121	0x3d9b2c80	0.07576847
122	0xbcd9dae1	-0.026593627
123	0x3dbbf79b	0.09178086
124	0xbe3fead6	-0.18741927
125	0xbe2e3132	-0.17010954
126	0x3dd25f25	0.10272054
127	0x3daa1a5c	0.08305809
128	0xbc0740e7	-0.00825522
129	0x3d8858f0	0.066575885
130	0xbc9a5862	-0.018840972
131	0xbd4e2a4f	-0.050333317
132	0x3cc7cf9d	0.02439099
133	0x3c4b67d2	0.012414889
134	0x3dae825c	0.08520958
135	0x3e0c039b	0.1367325
136	0xbe2716bc	-0.16317266
137	0x3dd7c622	0.10535838
138	0x3b0110cd	0.0019693852
139	0xbde45197	-0.111483745
140	0x3e208aa0	0.15677881
141	0x3d8b7c68	0.06810838
142	0x3c8c6a11	0.01714042
143	0xbc7a8ca4	-0.01529232
144	0x3cbd5da1	0.023115935
145	0xbde565d9	-0.112010665
146	0x3e3eb078	0.18622005
147	0xbdaaf9af	-0.083484046
148	0xbc3eec72	-0.011653053
149	0xbe2112b2	-0.15729788
150	0x3d73a014	0.059478834
151	0xbd232642	-0.039831407
152	0xbdf26d9c	-0.118373126
153	0xbdc2f112	-0.09518637
154	0x3cc03ac5	0.023465523
155	0xbe48921e	-0.1958699
156	0x3d7e38ce	0.062065892
157	0x3c6f5946	0.014608687
158	0x3cb360fb	0.02189683
159	0x3d83ceab	0.06435903
160	0xbe6a1778	-0.22860515
161	0xbe0c7376	-0.1371592
162	0x3e3335c6	0.17500982
163	0x3e41fa31	0.18943097
164	0x3da769b3	0.081744574
165	0xbe45195e	-0.19247958
166	0xbd8e1c11	-0.06938947
167	0xbdb8ffc6	-0.0903316
168	0x3e81f3f0	0.25381422
169	0x3dc88a2d	0.0979198
170	0x3af56fa2	0.0018725286
171	0xbe0de08d	-0.1385519
172	0x3e37e385	0.17957886
173	0x3d4bc4a0	0.049748063
174	0xbd91ad8b	-0.07113179
175	0x3d52e949	0.05149201
176	0xbe2897a9	-0.16464104
177	0xbe777987	-0.24167453
178	0xbe2418aa	-0.16025034
179	0xbd962c22	-0.073326364
180	0x3d9d6cd6	0.076867744
181	0xbde99a65	-0.114064015
182	0xbdc67078	-0.096894205
183	0xbe854850	-0.26031733
184	0xbb8871a0	-0.004163936
185	0xbd875db1	-0.06609667
186	0x3e0fe5b0	0.14052463
187	0x3e175e77	0.14782129
188	0x3d024c43	0.03181101
189	0xbcbe3281	-0.023217442
190	0xbd73f66d	-0.05956118
191	0xbd2451e5	-0.040117163
192	0x3d45f3d0	0.04832822
193	0x3e16e191	0.14734484
194	0x3da9c6d8	0.082898796
195	0xbb35b75e	-0.0027727704
196	0x3e36a994	0.17838126
197	0x3e11ce2f	0.14238809
198	0x3e7736e7	0.24142037
199	0x3c91dfd5	0.017806927
200	0xbd3b3914	-0.04570873
201	0xbcf3e600	-0.029772758
202	0x3d98a3fd	0.07453153
203	0x3a36bd76	0.0006970981
204	0x397df7f8	0.00024220336
205	0x3dbba8ad	0.09163032
206	0xbe1cfdb7	-0.1533116
207	0x3d803268	0.06259614
208	0x3a9da42b	0.0012027075
209	0xbb0a1bcd	-0.00210737
210	0xbdfcf9a0	-0.123523
211	0xbdee9729	-0.11649925
212	0x3e5e0e61	0.21685173
213	0xbd22a885	-0.039711494
214	0x3d80e351	0.06293357
215	0xbda6bc78	-0.08141416
216	0xbe9326d0	-0.2874055
217	0x3e094119	0.13403739
218	0x3de1b421	0.11020685
219	0x3dfee593	0.124461316
220	0xbd0eed29	-0.034894142
221	0xbce26ad2	-0.027638827
222	0x3d5867d9	0.05283341
223	0x3e0a9cbf	0.13536356
224	0xbe009cd6	-0.12559828
225	0x3dc1b5c3	0.094584964
226	0xbd936c47	-0.07198387
227	0x3c099da1	0.008399398
228	0x3cc5f630	0.024165243
229	0x3d904f49	0.070463724
230	0xbdd3e71b	-0.10346814
231	0x3cf42686	0.029803526
232	0xbb8f03d3	-0.0043644696
233	0x3d639486	0.055561565
234	0x3dacca2f	0.08437001
235	0xbcdb78a3	-0.026790923
236	0xbe46e403	-0.19422917
237	0xbe7eb654	-0.2487424
238	0xbe2d30cf	-0.1691315
239	0xbdc06225	-0.093937196
240	0xbdf92399	-0.12164993
241	0xbdc43cb5	-0.095818914
242	0xbe325eb3	-0.17418937
243	0x3de233a9	0.1104501
244	0x3cdfa49e	0.027300175
245	0x3de6ba36	0.11265986
246	0xbca6c95a	-0.020359684
247	0xbd9da28b	-0.07697018
248	0x3cbd9bbb	0.023145547
249	0xbaabb5d2	-0.0013100451
250	0xbe162fdb	-0.14666693
251	0xbe33516c	-0.17511529
252	0x3dcfaf06	0.10140805
253	0xbe1d18ae	-0.15341446
254	0x3e3c9a44	0.18418223
255	0xbe01c35c	-0.1267218

conv.0.bias f4 [20]
0	0xbcc246c8	-0.023715392
1	0xbd0f2de7	-0.034955885
2	0xbce2579d	-0.027629668
3	0xbbdeb9f3	-0.006797069
4	0xbdca468b	-0.09876736
5	0x3d835939	0.06413502
6	0xbd87d872	-0.066330805
7	0xb5e168b7	-1.6794282e-06
8	0x347cb428	2.353487e-07
9	0xbeaee119	-0.3415611
10	0xbe2ccb1c	-0.16874355
11	0xbe91f069	-0.2850373
12	0x3ddf8555	0.10914103
13	0xbe2fa1b5	-0.1715153
14	0xbd045329	-0.03230587
15	0x360f88a6	2.13882e-06
16	0xbd956b17	-0.072958164
17	0xbdbfb499	-0.09360618
18	0x3d2cdad3	0.042200875
19	0xbc9eb7f0	-0.019374818

conv.1.weight f4 [20]
0	0x3e13850e	0.14406225
1	0x3e18b208	0.14911664
2	0x3e638093	0.22217016
3	0x3e26b175	0.16278632
4	0x3e3bea28	0.18351042
5	0x3e762052	0.24035767
6	0x3e5be4b9	0.2147397
7	0x3dcc915c	0.099886626
8	0x3e167177	0.14691721
9	0x3e0278ec	0.1274144
10	0x3e59c783	0.21267514
11	0x3e3bbfe6	0.18334922
12	0x3e7029ff	0.2345352
13	0x3e7c87bd	0.24661155
14	0x3e5b8083	0.21435742
15	0x3e44988f	0.19198821
16	0x3e5d389e	0.21603629
17	0x3dc3b5ae	0.09556137
18	0x3e0f1f13	0.13976698
19	0x3e2fb773	0.17159824

conv.3.weight f4 [40, 20, 5, 5]
0	0xbc90d4f8	-0.017679676
1	0x3ccebfbf	0.025237916
2	0x3ceb4f25	0.028724262
3	0x3b0d1875	0.002152947
4	0x3d40a36a	0.047030844
5	0x3cf1c379	0.029512154
6	0x3a0b9dd1	0.00053259457
7	0x3ce57980	0.028012037
8	0x3ba6fe4b	0.005096232
9	0x3b2b1529	0.0026105142
10	0x3cfeb1de	0.031090673
11	0x3c6d1d8f	0.014472379
12	0xbca53c04	-0.02017022
13	0xbc043712	-0.00806977
14	0x3cf49674	0.029856898
15	0x3d145f0e	0.036223464
16	0x3c672aad	0.014109296
17	0xbca18a22	-0.019719187
18	0x3c3c4ca9	0.011492887
19	0x3d462758	0.048377365
20	0x3aca6c78	0.0015443703
21	0xbcaa9b4c	-0.020826004
22	0xbd03d1a2	-0.032182343
23	0xbc0e73c6	-0.008694595
24	0xbc2344d2	-0.0099651385
25	0xbcd81b04	-0.02638007
26	0x3ccf5bc0	0.025312304
27	0x3cb6d487	0.022318138
28	0x3ba712a3	0.005098657
29	0x3ce379d5	0.027768055
30	0x3d085c38	0.03329107
31	0xbc677959	-0.014128053
32	0x3c0ea65d	0.008706656
33	0xbcb227f6	-0.02174757
34	0x3cdc2270	0.02687189
35	0xbd625eb8	-0.055266112
36	0x3d074ebe	0.03303408
37	0x3b21f471	0.0024712349
38	0x3ceba289	0.028764026
39	0x3ce31821	0.027721466
40	0xbd5a4542	-0.053288706
41	0xbbd49b87	-0.006488267
42	0x3cba68bb	0.022755018
43	0x3c242b0c	0.010020029
44	0xbc6e8b6a	-0.014559606
45	0xbbffde5f	-0.007808491
46	0xbc9f3fd7	-0.01943962
47	0xbc9c109d	-0.01905089
48	0x3c67bba6	0.01414386
49	0x3d147f7a	0.036254384
50	0xbc5ae565	-0.013360356
51	0xbc86bdac	-0.016447864
52	0xbcae487d	-0.0212748
53	0xba68505a	-0.0008862071
54	0xbcf937f1	-0.030422183
55	0x3c8a5205	0.016884813
56	0xbd1c7b91	-0.03820378
57	0xbd1e8b8a	-0.038707294
58	0x3d3b3947	0.04570892
59	0x3c7c6d56	0.015406927
60	0x3ce0ce1d	0.027442032
61	0x3c4f6940	0.012659371
62	0x3c193816	0.009351751
63	0x3d052584	0.03250648
64	0xbce2e0db	-0.02769511
65	0x3c263814	0.010145206
66	0xbd21f785	-0.039542694
67	0xbcb800d1	-0.022461327
68	0xbb83e3e9	-0.0040249717
69	0x3d1ea78b	0.038734
70	0x3d033281	0.032030586
71	0xbb805acd	-0.0039170743
72	0xbcdb6584	-0.026781805
73	0xbcdb21f7	-0.026749594
74	0x3d1052fd	0.035235394
75	0xbc96476c	-0.018344603
76	0x3bd2ae54	0.006429473
77	0x3d426858	0.04746279
78	0x3cc1c3e5	0.02365298
79	0xbbd09b85	-0.0063661956
80	0x3d35c08f	0.04437309
81	0xbcee42bf	-0.029084561
82	0xbbc336ed	-0.0059574754
83	0x3d197be4	0.037471667
84	0x3d3170f4	0.04332061
85	0xbc700d0b	-0.014651547
86	0xbc798beb	-0.015231113
87	0x3c06f4ed	0.008237106
88	0x3bf9d410	0.007624157
89	0x3bb1c7e3	0.0054254397
90	0x399af546	0.00029555912
91	0xbbb8b4a5	-0.005636769
92	0x3c4067e8	0.011743523
93	0x3c9a6be2	0.01885027
94	0xbc02cbde	-0.007983176
95	0x3c555972	0.013021814
96	0x3caa1906	0.020763885
97	0x3b122843	0.002230183
98	0x3cf9eb70	0.030507773
99	0x3c37449b	0.01118579
100	0xbd1f1ddb	-0.03884683
101	0xbd4a734e	-0.04942637
102	0xbbfd6eae	-0.0077341413
103	0xbd161f1f	-0.036650773
104	0x3b1253f4	0.0022327872
105	0x3cb9476d	0.022617066
106	0x3c9f3c5e	0.019437965
107	0x3c23e23e	0.010002671
108	0xbceafd11	-0.028685125
109	0x3bf5a183	0.0074960603
110	0x3d10080a	0.035163917
111	0xbd1b61a1	-0.037934903
112	0xbce3d93e	-0.02781355
113	0x3a84b699	0.0010125219
114	0x3c864537	0.016390426
115	0xb9996752	-0.00029259414
116	0x3d0d5a15	0.034509737
117	0xbd2804a1	-0.04102004
118	0x3c9acd08	0.018896595
119	0xbc4710fe	-0.012150047
120	0x3d0c13e0	0.03419864
121	0x3d275fc6	0.04086282
122	0xbd11336e	-0.035449438
123	0x3cde2a8f	0.027119903
124	0xbd22275e	-0.039588325
125	0x3b72aba5	0.0037028578
126	0xbd276262	-0.04086531
127	0x3cf069ae	0.029347267
128	0xbc7332ed	-0.014843685
129	0xbce67b16	-0.028134864
130	0x3d17dafa	0.037074067
131	0xbd0cae54	-0.03434594
132	0xbb46e3b6	-0.0030348129
133	0x3c9961c3	0.018723374
134	0xbc6d4cb4	-0.0144836195
135	0x3cde543b	0.027139774
136	0xbbfbf507	-0.0076891216
137	0x3d1dc99a	0.03852234
138	0xbd29d62a	-0.04146401
139	0xbbc1c110	-0.0059129074
140	0x3b3aab65	0.0028483507
141	0xbbb2b2d6	-0.005453448
142	0x3d2b6921	0.041848306
143	0xbc1f874c	-0.009736847
144	0xbd32ed0d	-0.0436831
145	0x3bdbe4ba	0.006710616
146	0xbd048cd6	-0.032360874
147	0x3d2aa862	0.04166449
148	0x3d099ce1	0.033596877
149	0xbcde0d64	-0.027105995
150	0x3b800007	0.0039062533
151	0x3c18bb9d	0.009322074
152	0x3cf66beb	0.030080756
153	0xbcb18c3a	-0.02167331
154	0x3cfb1c33	0.030653095
155	0x3c96a60a	0.01838972
156	0x3cc706f8	0.024295315
157	0x3cb26fee	0.021781888
158	0x3bde529a	0.006784749
159	0x3b5518b1	0.0032515938
160	0x3cb4d668	0.022074893
161	0x3c9abe57	0.01888959
162	0xbd16ed9c	-0.036847696
163	0x3be4b846	0.006979975
164	0x3b080bf8	0.0020759087
165	0x3d18ec02	0.03733445
166	0xbd10d20c	-0.035356566
167	0x3c30f878	0.010801427
168	0xbcc7e728	-0.024402216
169	0xbbd67d88	-0.006545726
170	0xbd049158	-0.032365173
171	0x3cc7cab5	0.02438865
172	0x3cc96f87	0.024589313
173	0x39e263f9	0.00043180565
174	0xbc7f1191	-0.015568153
175	0xbcf05495	-0.029337207
176	0xbb314f86	-0.0027055456
177	0xbbf50a55	-0.0074780383
178	0x3c4b7afb	0.012419458
179	0x3d544428	0.05182281
180	0x3d11c6a1	0.035589818
181	0x3cd1e6ac	0.025622688
182	0xbce608bf	-0.028080342
183	0xbaa837c2	-0.0012834
184	0xbcac32d3	-0.021020329
185	0x3d0917da	0.033470012
186	0xbc97768b	-0.018489143
187	0xbd217d51	-0.03942615
188	0xbbe34222	-0.006935374
189	0x3c8efe12	0.017455135
190	0xbc880c32	-0.016607378
191	0xbca80adf	-0.020512996
192	0xbcb93aa1	-0.022610964
193	0x3d0f28ca	0.03495101
194	0xbc82bc19	-0.015958833
195	0xbd59d103	-0.053177845
196	0xbd11dece	-0.035612874
197	0x3cb7c10d	0.022430921
198	0x3ca097be	0.019603606
199	0x3d0edeb6	0.034880362
200	0xbca00909	-0.019535558
201	0xbd361306	-0.044451736
202	0xbd3b012f	-0.045655426
203	0xbc0e1560	-0.008672088
204	0xb91af641	-0.00014778321
205	0xbc38fc14	-0.011290569
206	0xbd44a772	-0.04801125
207	0x3c802128	0.01564081
208	0xbcda6870	-0.026661128
209	0xbc664c10	-0.014056221
210	0xbd3827d0	-0.044959843
211	0xbcd7d7f8	-0.0263481
212	0xbcc50b99	-0.024053382
213	0x3b95cc84	0.0045714993
214	0x3bf4e21d	0.007473244
215	0x3d1f9fdc	0.038970813
216	0x3c9198d9	0.017773079
217	0x3c6c62e6	0.014427876
218	0xbd516bb9	-0.051128123
219	0x3b26f74f	0.0025476997
220	0x3c501e8d	0.012702596
221	0x3d095e1f	0.033537026
222	0x3cf7ebdd	0.030263836
223	0xbce0e846	-0.027454507
224	0x3ca7f750	0.02050367
225	0x3d64169b	0.05568562
226	0xbcc6ed92	-0.024283204
227	0x3d37a75e	0.04483735
228	0x3cf8089a	0.030277539
229	0x3c8bc88c	0.017063402
230	0x3cb37a02	0.021908764
231	0x3c3825df	0.011239498
232	0x3c892f3d	0.016746158
233	0x3cabea3e	0.020985719
234	0x3c210991	0.009828941
235	0x3c97844a	0.018495698
236	0xbc17af1e	-0.00925806
237	0xbc093e6a	-0.008376697
238	0xbca33883	-0.019924408
239	0xbc8a4a72	-0.016881201
240	0x3d409ddb	0.047025543
241	0xbc842c76	-0.016134482
242	0xbc958f67	-0.018256856
243	0x3d54c313	0.05194385
244	0x3cd14ead	0.02555021
245	0xbd0359e5	-0.032068152
246	0x3d30f1c2	0.04319931
247	0xbbd95bc9	-0.006633256
248	0x3cd0fd60	0.025511444
249	0xbce02fa0	-0.02736646
250	0xbd1a1d7d	-0.03762578
251	0x3d2559a2	0.040368684
252	0xbbe6f231	-0.0070479144
253	0xbcee8505	-0.029116163
254	0x3c44c4a0	0.01200977
255	0x3c0a484d	0.008440089

conv.3.bias f4 [40]
0	0xbd11c2da	-0.035586216
1	0x3cada85b	0.021198442
2	0x3b9b9dbd	0.0047490285
3	0xbcc9853b	-0.024599662
4	0xbced1034	-0.02893839
5	0x3caaa6f5	0.020831564
6	0xbd2a2aff	-0.04154491
7	0xbc7ea0ba	-0.01554125
8	0xbc390174	-0.01129185
9	0xbc51e307	-0.012810475
10	0xbd3b9905	-0.045800228
11	0x3bfee04a	0.007778202
12	0xbd68485e	-0.05670964
13	0x3c348a45	0.011019294
14	0xbd432c85	-0.04764988
15	0xbc1a61da	-0.009422744
16	0xbbfde65e	-0.007748409
17	0xbc441cb9	-0.011969739
18	0xbd019646	-0.031637453
19	0xbce14dc2	-0.027502898
20	0x3d4ccf81	0.05000258
21	0x3c117fe5	0.00888059
22	0x3d04fcc2	0.03246761
23	0xbd316d19	-0.043316934
24	0xbba4b445	-0.0050263726
25	0xbba094c6	-0.0049005477
26	0xbd22fab2	-0.039789863
27	0xbd759c7a	-0.05996368
28	0xbd05ee11	-0.03269774
29	0xbc0938e0	-0.008375376
30	0xbc0e1283	-0.008671406
31	0xbd291dbd	-0.041288126
32	0x3ce74b08	0.02823402
33	0x3c074774	0.008256782
34	0x3b96eb39	0.0046056774
35	0xbd36f03a	-0.04466269
36	0x3bbf9a87	0.0058472785
37	0xbca85caa	-0.020551998
38	0xbd418e91	-0.047255103
39	0xbc2bc5f7	-0.01048421

conv.4.weight f4 [40]
0	0x3e4df3bd	0.2011251
1	0x3dc6b339	0.09702153
2	0x3e80619a	0.25074464
3	0x3e3fde1d	0.18737073
4	0x3e6672fd	0.22504802
5	0x3e0a2940	0.13492298
6	0x3e67e7f9	0.22647084
7	0x3e7f387d	0.24923892
8	0x3e001895	0.12509377
9	0x3e320f30	0.17388606
10	0x3e4142bd	0.18873115
11	0x3e3db064	0.18524319
12	0x3e6dcb0f	0.23221992
13	0x3e2860de	0.16443202
14	0x3e28d5df	0.16487835
15	0x3e6478fb	0.22311775
16	0x3e713b5e	0.23557803
17	0x3e61e786	0.22060975
18	0x3e70b3ab	0.23506038
19	0x3e45278f	0.19253372
20	0x3dd1cece	0.10244523
21	0x3e260960	0.16214514
22	0x3d91c72e	0.07118069
23	0x3e6a5822	0.22885182
24	0x3e711d7d	0.23546405
25	0x3e575156	0.21027121
26	0x3d9c931c	0.076452464
27	0x3e69762b	0.22798984
28	0x3e5b90e1	0.21441986
29	0x3e6220eb	0.2208287
30	0x3e183ab5	0.14866145
31	0x3e743bd0	0.23850942
32	0x3e0b2a76	0.13590416
33	0x3e6e2192	0.23254994
34	0x3e210fec	0.1572873
35	0x3e6fce72	0.23418596
36	0x3e3615e3	0.17781787
37	0x3d6325a5	0.055455822
38	0x3e76c6f5	0.24099334
39	0x3e560bc1	0.20902921

conv.6.weight f4 [80, 40, 5, 5]
0	0x3c2de928	0.010614671
1	0x3bd58e93	0.0065172403
2	0xbc017b4a	-0.00790293
3	0x3c78f972	0.015196191
4	0x3a758241	0.00093654176
5	0x3be7fb87	0.007079545
6	0x3cc9747f	0.024591682
7	0xbc8fd1c6	-0.017556082
8	0xbcc28fe3	-0.023750251
9	0x3cd5d9e7	0.02610488
10	0xbc813deb	-0.015776595
11	0x3c9e65c5	0.019335637
12	0xbc8745a7	-0.016512705
13	0xbc65eb39	-0.014033132
14	0xbcdb4eb6	-0.02677093
15	0xbc42f3aa	-0.011898914
16	0xbc8137be	-0.01577365
17	0x3cffd604	0.03122998
18	0x3be2b86f	0.006918959
19	0x3c348b60	0.011019558
20	0xbc881c59	-0.01661508
21	0xbca6645f	-0.020311533
22	0xbc6b1d3d	-0.014350233
23	0x3b098d67	0.0020988823
24	0x3c6af111	0.014339701
25	0x3bd875d5	0.0066058435
26	0xbcc7b0ba	-0.024376262
27	0x3a556485	0.0008140284
28	0x3bb0dfe9	0.005397786
29	0x3c9a919e	0.018868264
30	0xbc8ebb20	-0.017423213
31	0x3c9b1268	0.018929675
32	0xbbec0a82	-0.007203401
33	0xbcd9f3cf	-0.026605515
34	0xbc3096b6	-0.01077812
35	0xbcdb3172	-0.026756976
36	0xbce67645	-0.028132567
37	0xbcb22f05	-0.021750936
38	0x3a9c3a4e	0.0011919232
39	0xbcd1a01f	-0.025589047
40	0x3cbab29c	0.022790246
41	0x3c1308c8	0.008974262
42	0x3cc4c2a7	0.024018599
43	0xbcc55f83	-0.024093395
44	0x3c15f7c9	0.009153315
45	0x3a75aa83	0.00093714165
46	0x3cebb9a6	0.028775048
47	0xbb31eb72	-0.0027148393
48	0x3d037512	0.03209407
49	0xbc3913a1	-0.011296184
50	0xbbb7716b	-0.0055982373
51	0xbb4cbbf1	-0.0031239951
52	0xbc38256f	-0.011239394
53	0x3c9f1ffe	0.019424435
54	0xbcb2bb20	-0.021817744
55	0x3cf16bf3	0.02947042
56	0x3cb9f373	0.022699093
57	0x3b988a8b	0.0046551875
58	0x3c064a0b	0.008196364
59	0xbc8eae21	-0.017417016
60	0x3ce74e76	0.028235655
61	0x3c9074be	0.017633792
62	0x3cb7f730	0.022456735
63	0xbcd837a9	-0.026393728
64	0xbb71ec11	-0.0036914388
65	0xbd01e974	-0.03171678
66	0x3c816557	0.015795393
67	0xbb631254	-0.0034648376
68	0xbcf4fd12	-0.02990583
69	0xbcac14fe	-0.021006104
70	0x3b1494d3	0.0022671714
71	0x3cd9bbc8	0.026578799
72	0x3c8f2385	0.017472992
73	0x3cfd6816	0.030933421
74	0xbb52ab3c	-0.003214552
75	0x3ad8adfb	0.0016531342
76	0xbb8247c6	-0.003975841
77	0x3c86d505	0.016458998
78	0x3b1b15e8	0.002366418
79	0x3c5f1804	0.013616566
80	0xbc9a79a1	-0.018856825
81	0x3d012962	0.031533606
82	0x3c812c96	0.01576833
83	0xbcc4de55	-0.024031797
84	0x3c14aa2c	0.009073775
85	0x3c2da55c	0.010598507
86	0xbc4e0bdb	-0.012576069
87	0xba920c98	-0.0011142669
88	0x3ca47479	0.02007507
89	0x3d02914f	0.03187686
90	0xbc17ba4d	-0.009260726
91	0xbcbd5f3e	-0.023116704
92	0x3c69db3d	0.014273462
93	0xbbf7ab5d	-0.00755827
94	0xbceef76c	-0.029170714
95	0x3cc8dcf6	0.024519425
96	0xbcde93bf	-0.02717006
97	0x3c8c3618	0.017115638
98	0xbd05e7d9	-0.03269181
99	0xbd0adbf2	-0.033901162
100	0x3c85db9b	0.016340068
101	0xbc87c846	-0.01657499
102	0xbcae3edd	-0.02127021
103	0x3c4360d9	0.011924946
104	0xbccdc8ae	-0.025120106
105	0xbca73b48	-0.02041401
106	0x3c13e506	0.009026771
107	0x3c348936	0.011019042
108	0x3c3de1b0	0.011589453
109	0x3d0e242a	0.034702457
110	0xbbd49227	-0.0064871493
111	0x3c91f5d9	0.017817425
112	0x3c138ab0	0.009005234
113	0xbbe7f656	-0.007078926
114	0x3ca29050	0.019844204
115	0x3ab954b8	0.0014139628
116	0xbcfb4db1	-0.030676695
117	0xbb2ae249	-0.0026074818
118	0x3cc29d22	0.023756567
119	0xbbf100a6	-0.0073548136
120	0xbccad0a1	-0.024757685
121	0x3c968a16	0.018376391
122	0x3c8ff6b4	0.017573692
123	0x3d0156ee	0.031577043
124	0x3ce0b0fd	0.027428145
125	0xbcd6726c	-0.026177607
126	0xbcf336de	-0.029689249
127	0xbd0a13ad	-0.03371017
128	0xbcf027e5	-0.029315898
129	0x3c90cb0a	0.017674942
130	0xbce7bb46	-0.028287541
131	0x3b87c33d	0.0041431473
132	0xbca0ad78	-0.019613966
133	0x3c382bf6	0.01124095
134	0xbc5c9390	-0.013462916
135	0xbc982450	-0.018572003
136	0x3c8cfb55	0.017209688
137	0xbb3e1241	-0.002900258
138	0xbbe80f6b	-0.007081916
139	0xbc50f079	-0.012752646
140	0xbcf57ff9	-0.029968249
141	0xbc089f82	-0.008338811
142	0x3cc93bf9	0.02456473
143	0x3cad0585	0.021120796
144	0xbab0ea7c	-0.0013497616
145	0x3c7d330b	0.015454064
146	0xbd1cafa6	-0.03825345
147	0x3ba57c23	0.0050501986
148	0xbcb73184	-0.022362478
149	0xbcd1eabd	-0.025624627
150	0xbb601523	-0.0034192286
151	0xbc49a084	-0.012306336
152	0x3ad690d2	0.0016370064
153	0x3bc52987	0.0060169133
154	0xbca659d9	-0.020306515
155	0xba1ab8ad	-0.00059021526
156	0xbb4cdbaa	-0.003125886
157	0x3c87101f	0.01648718
158	0xbc33ff19	-0.010986113
159	0xbcd8458f	-0.026400356
160	0xbcf75073	-0.030189728
161	0xb9f90ada	-0.00047501066
162	0xbbb0b520	-0.0053926855
163	0x3bdd7798	0.0067586415
164	0xbc654fc0	-0.013996065
165	0x3b46ee22	0.003035434
166	0xbca2d278	-0.01987575
167	0x3c33e526	0.010979926
168	0x3c37fe89	0.0112301195
169	0xbc267a41	-0.010160984
170	0xbcc89aa8	-0.024487808
171	0xbc0f3eca	-0.008742997
172	0xbc42a1d0	-0.011879399
173	0xbb52927c	-0.0032130769
174	0x3cafe1c1	0.021469953
175	0x3c55695b	0.013025607
176	0x3cdbebdf	0.02684587
177	0x3cb92684	0.022601373
178	0xbcb4665d	-0.022021467
179	0x3ce07dbf	0.02740371
180	0x3c4e082a	0.012575189
181	0xbccf9b4b	-0.025342604
182	0xbcf4ca61	-0.029881658
183	0x3a849156	0.0010114114
184	0x3bf514de	0.007479294
185	0xbcc073a1	-0.023492636
186	0xbd133455	-0.03593858
187	0x3bd9816d	0.006637743
188	0x3c476317	0.012169621
189	0xbc7a5af8	-0.015280478
190	0x3c85bee9	0.016326385
191	0x3c810c1a	0.01575284
192	0xbc699313	-0.014256257
193	0xbce360a8	-0.02775605
194	0xbc2d5686	-0.010579711
195	0x3cd02c59	0.025411772
196	0xbc3b44f3	-0.011430013
197	0xbbac63c6	-0.0052609174
198	0x3c070e1e	0.008243112
199	0xbd0a1cf2	-0.03371901
200	0xbcbe820a	-0.023255367
201	0x3c914ab5	0.017735818
202	0x3baf5de7	0.00535177
203	0x3aa9bc23	0.0012949746
204	0x3a6d796c	0.0009058926
205	0x395ed116	0.0002124946
206	0xbc9e9cc0	-0.019361854
207	0xbce3714f	-0.02776399
208	0x3cb7ae5b	0.022422006
209	0x3b0abad8	0.0021168496
210	0x3b95d8c1	0.004572958
211	0xbc3f4e1b	-0.011676337
212	0x3c2c456d	0.010514599
213	0x3c38b064	0.011272524
214	0x3c96c49a	0.018404294
215	0xbd217e6d	-0.03942721
216	0xbc431dc3	-0.011908951
217	0x3cf53c8c	0.029936098
218	0x3b5d64dd	0.0033782043
219	0xbcd77470	-0.026300639
220	0xbcfbbd83	-0.030730015
221	0x3baa4bc5	0.0051970207
222	0x3c28ef3a	0.010310942
223	0x3c0a03cf	0.00842376
224	0x3b35679f	0.0027680171
225	0xbca4adfb	-0.020102492
226	0x3c6bdf3b	0.014396484
227	0xbc255ca5	-0.010092889
228	0xbceeb895	-0.02914075
229	0xbcdfa6e7	-0.027301265
230	0xbd04dfd0	-0.032440007
231	0xbd066de7	-0.032819655
232	0x3c1ddb27	0.0096347695
233	0x3c800018	0.015625045
234	0x3c8ed80c	0.017437004
235	0x3c7e14d3	0.015507895
236	0xbc85ec20	-0.016347945
237	0x3b3f35a4	0.002917626
238	0x3c722634	0.014779616
239	0x3bd7546b	0.0065713427
240	0x3b1907f3	0.0023350685
241	0xbcc5ef21	-0.024161877
242	0xbc9af0e1	-0.018913688
243	0x3ca7e1fb	0.020493498
244	0xbbfcae4e	-0.0077112084
245	0x3c6887ee	0.014192564
246	0x3ce235d1	0.027613552
247	0xbae42d6b	-0.0017408555
248	0xbb1dd1eb	-0.002408142
249	0xbba59248	-0.0050528385
250	0xbc58e94d	-0.013239217
251	0xbd102b73	-0.035197686
252	0x3c122a22	0.008921178
253	0xbbfb4c8f	-0.0076690386
254	0xbcedda2e	-0.0290347
255	0xbc337fd6	-0.010955771

conv.6.bias f4 [80]
0	0x3bd7dbc8	0.0065874793
1	0xbccc3fe1	-0.024932804
2	0xbaa0f6f6	-0.0012280631
3	0xb9ef8263	-0.00045682778
4	0x3b1cc500	0.0023921132
5	0x3ce8fb1d	0.028440053
6	0xbc2e8f39	-0.010654264
7	0xbcbf82b9	-0.023377763
8	0x3b36947c	0.00278595
9	0x3bc135d4	0.0058963094
10	0xbd24f0dc	-0.040268764
11	0x3bafa9a0	0.005360797
12	0xbbad7d55	-0.0052944818
13	0x3c1c71f1	0.00954865
14	0x3d0369d0	0.032083333
15	0xbc947b1b	-0.018125108
16	0x3d0a30cb	0.03373794
17	0xbc35fe94	-0.011108059
18	0x3bd0c1d1	0.006370761
19	0x3bd3e819	0.006466877
20	0xba9ad792	-0.0011813513
21	0xbbcbece2	-0.006223307
22	0xbae0367d	-0.0017106083
23	0xbc1ac4e4	-0.009446356
24	0x3c99d3c2	0.018777732
25	0xbaba0122	-0.0014191011
26	0xba9ed4b1	-0.001211783
27	0xbb5b84a7	-0.0033495815
28	0xbc5c6dda	-0.013453925
29	0xbc9f7d3f	-0.019468902
30	0x3c051474	0.008122552
31	0xbc8ada09	-0.01694967
32	0x3bcccb27	0.0062498036
33	0xbb763928	-0.003757069
34	0xbada6ca8	-0.0016664462
35	0xbce35cb0	-0.027754158
36	0xbc9fb170	-0.019493788
37	0x3c00af1b	0.007854248
38	0x3bb3fe3a	0.0054929527
39	0xba46a03d	-0.0007576978
40	0x3b5a3b5a	0.0033299536
41	0x3af2832e	0.0018502229
42	0xbc230569	-0.00995002
43	0x3bbb1306	0.005709055
44	0x3c113f1b	0.008865143
45	0xb94ce9f4	-0.0001954211
46	0xbb894acc	-0.0041898247
47	0xb9422440	-0.00018514786
48	0x3b8ec719	0.0043572304
49	0x39ffa41e	0.00048759667
50	0xbbfd9f5c	-0.0077399444
51	0xbc9f1881	-0.019420864
52	0xbc7028ab	-0.0146581335
53	0xbb122f07	-0.0022305863
54	0x3d0592e7	0.0326108
55	0x3ce6d893	0.028179443
56	0xbbca4020	-0.006172195
57	0xbb6b0a0f	-0.003586415
58	0xbb472c1b	-0.003039128
59	0x3cdcd747	0.026958121
60	0xbcd941f3	-0.026520705
61	0xbbcd258f	-0.006260581
62	0x3bf52d9a	0.007482243
63	0x3952a17d	0.0002008732
64	0xbcf5d563	-0.030008977
65	0x3cbf5d0c	0.023359798
66	0x3d26c6d0	0.040716946
67	0x3d219de7	0.039457228
68	0x3c14044d	0.0090342285
69	0x3a99b34f	0.0011726412
70	0xbc2a6e03	-0.010402205
71	0xbcdf73e7	-0.027276946
72	0xbb6aae3a	-0.0035809414
73	0x3b48a60a	0.0030616545
74	0xbd028889	-0.03186849
75	0x3bef77a1	0.007307962
76	0x3c312c3e	0.010813771
77	0xb84c5b5d	-4.872248e-05
78	0xbcbe8f22	-0.02326161
79	0xbc2568b7	-0.010095767

conv.7.weight f4 [80]
0	0x3e7f3d09	0.24925627
1	0x3e7b4e57	0.24541603
2	0x3e774adf	0.24149655
3	0x3e7327b3	0.23745613
4	0x3e7d28c6	0.24722585
5	0x3e80022f	0.25001666
6	0x3e7b7330	0.2455566
7	0x3e795290	0.24347901
8	0x3e7f5531	0.24934842
9	0x3e7f4ec3	0.24932389
10	0x3e7fe797	0.24990688
11	0x3e6bcd9d	0.23027654
12	0x3e651075	0.22369559
13	0x3e7fc846	0.24978742
14	0x3e8000ea	0.25000697
15	0x3e836dd9	0.25669745
16	0x3e80161f	0.25016877
17	0x3e83a5ed	0.2571253
18	0x3e7ed827	0.24887143
19	0x3e7f8946	0.2495471
20	0x3e651a9c	0.22373432
21	0x3e7c59a4	0.2464357
22	0x3e797331	0.24360348
23	0x3e827d0a	0.25486022
24	0x3e803188	0.2503779
25	0x3e7eed9e	0.24895331
26	0x3e7c1fdd	0.2462153
27	0x3e7eaca3	0.24870543
28	0x3e8378b2	0.2567802
29	0x3e84470e	0.2583546
30	0x3e6f84fa	0.2339057
31	0x3e7dc6df	0.24782895
32	0x3e5dc6ef	0.21657918
33	0x3e767ea7	0.24071752
34	0x3e734aef	0.23759054
35	0x3e818d94	0.25303328
36	0x3e855f0a	0.26049072
37	0x3e76908d	0.24078579
38	0x3e7f7c7c	0.24949831
39	0x3e7e979c	0.24862522
40	0x3e7b9200	0.24567413
41	0x3e72d463	0.23713832
42	0x3e71848e	0.23585722
43	0x3e80aab0	0.25130224
44	0x3e7e230e	0.2481806
45	0x3e70aef6	0.23504242
46	0x3e74c7ce	0.23904344
47	0x3e7d714d	0.24750252
48	0x3e74ba9c	0.23899311
49	0x3e7afdb4	0.24510843
50	0x3e702fd4	0.23455745
51	0x3e78bee9	0.24291576
52	0x3e86b4ab	0.26309714
53	0x3e728aab	0.2368571
54	0x3e800212	0.2500158
55	0x3e800000	0.25
56	0x3e7579a1	0.23972179
57	0x3e687668	0.22701418
58	0x3e7e4a4e	0.24833032
59	0x3e7fbded	0.24974795
60	0x3e831b0f	0.25606582
61	0x3e77f8a1	0.24215938
62	0x3e7b551e	0.24544188
63	0x3e7e68d5	0.24844678
64	0x3e805af7	0.250694
65	0x3e7ffe28	0.24999297
66	0x3e80481c	0.25055015
67	0x3e803a25	0.2504436
68	0x3e7307a6	0.23733386
69	0x3e6c574b	0.23080175
70	0x3e7164f4	0.23573667
71	0x3e832099	0.25610808
72	0x3e7d890a	0.24759308
73	0x3e7978e9	0.2436253
74	0x3e7c7d84	0.24657255
75	0x3e7afeb1	0.2451122
76	0x3e7fad24	0.24968392
77	0x3e726034	0.23669511
78	0x3e7ab5ad	0.24483366
79	0x3e56ec7c	0.20988649

conv.9.weight f4 [80]
0	0x3f802918	1.0012541
1	0x3f7fa959	0.9986778
2	0x3f80aaeb	1.005216
3	0x3f80acc9	1.005273
4	0x3f7e1552	0.9925128
5	0x3f812a86	1.0091102
6	0x3f809036	1.004401
7	0x3f7f4888	0.9972005
8	0x3f804b8b	1.0023054
9	0x3f804734	1.002173
10	0x3f80262c	1.0011649
11	0x3f80dc7e	1.0067289
12	0x3f807e57	1.0038556
13	0x3f81583a	1.010505
14	0x3f7f02d0	0.99613667
15	0x3f804189	1.002
16	0x3f8233ab	1.0172018
17	0x3f8049ba	1.00225
18	0x3f80556e	1.0026071
19	0x3f802aa0	1.0013008
20	0x3f812ab6	1.0091159
21	0x3f7f968e	0.99839103
22	0x3f7f3340	0.99687576
23	0x3f802579	1.0011436
24	0x3f8164b2	1.0108855
25	0x3f801b09	1.000825
26	0x3f807397	1.0035275
27	0x3f806751	1.003153
28	0x3f803b26	1.0018051
29	0x3f804aed	1.0022866
30	0x3f7f25cd	0.99667054
31	0x3f802385	1.001084
32	0x3f819477	1.0123433
33	0x3f80db59	1.006694
34	0x3f81b2a5	1.0132643
35	0x3f801ea3	1.000935
36	0x3f806bcd	1.0032898
37	0x3f810f52	1.00828
38	0x3f7ec418	0.99517965
39	0x3f7f2a6f	0.99674124
40	0x3f805698	1.0026426
41	0x3f80d081	1.006363
42	0x3f80eaff	1.0071715
43	0x3f805995	1.0027338
44	0x3f7e87f9	0.9942623
45	0x3f80d367	1.0064515
46	0x3f7fd243	0.9993021
47	0x3f7f5b8d	0.9974907
48	0x3f806724	1.0031476
49	0x3f7f998b	0.9984366
50	0x3f80a8e5	1.0051543
51	0x3f7f889e	0.99817836
52	0x3f808161	1.0039483
53	0x3f807d7c	1.0038295
54	0x3f7d401e	0.9892596
55	0x3f7e54ca	0.9934813
56	0x3f800d06	1.0003974
57	0x3f80cf5a	1.0063279
58	0x3f7fe5bc	0.9995992
59	0x3f807b83	1.0037693
60	0x3f80314f	1.0015048
61	0x3f81b311	1.0132772
62	0x3f8197a7	1.0124406
63	0x3f81c0fa	1.0137017
64	0x3f800537	1.0001591
65	0x3f7b48fc	0.9815824
66	0x3f800748	1.0002222
67	0x3f802769	1.0012027
68	0x3f8044a3	1.0020946
69	0x3f821210	1.0161762
70	0x3f7f3929	0.99696594
71	0x3f803acf	1.0017947
72	0x3f801aa7	1.0008134
73	0x3f8185fc	1.0119014
74	0x3f7facb3	0.99872893
75	0x3f7fc304	0.99906945
76	0x3f819b63	1.0125545
77	0x3f7fa2c5	0.9985774
78	0x3f7fe084	0.9995196
79	0x3f811591	1.0084707

conv.9.bias f4 [80]
0	0x3b902de4	0.004400002
1	0x3bce344e	0.0062928563
2	0x3b2649ae	0.0025373506
3	0xbc0e05bd	-0.00866836
4	0xbbfd4654	-0.007729331
5	0xbb35279a	-0.0027642013
6	0xbcff93df	-0.03119844
7	0xbb9db579	-0.004812893
8	0xbb15f1d0	-0.0022879727
9	0xba7c5a4e	-0.00096264936
10	0x3c37e83c	0.011224803
11	0xba80b1c7	-0.0009818607
12	0x36a70cdd	4.9784853e-06
13	0xbc790dae	-0.015201015
14	0x3b425031	0.0029649849
15	0x3bb31e20	0.0054662377
16	0xbbfedeb7	-0.0077780145
17	0xbafa55fc	-0.0019099112
18	0xbcabbe31	-0.020964714
19	0xbc6e4c4b	-0.014544557
20	0x3c8b7ae3	0.01702637
21	0xbb9e3f75	-0.004829342
22	0xbc3c8cee	-0.01150821
23	0xbc22f0f2	-0.009945141
24	0x3c32f6c9	0.010923096
25	0xbc142f57	-0.00904449
26	0xbb7f894a	-0.0038991743
27	0xbbda9552	-0.0066706324
28	0xbb299a81	-0.0025879445
29	0xbc2fd90f	-0.010732903
30	0xbbd03f35	-0.006355191
31	0xbb925dcd	-0.0044667483
32	0xbc12ef13	-0.008968133
33	0xbc1acceb	-0.00944827
34	0x3cccd59b	0.025004199
35	0xbb48fb9b	-0.0030667547
36	0xbbeca34c	-0.007221615
37	0xba6f3551	-0.0009125071
38	0x3be4e621	0.0069854413
39	0x3c09aa27	0.008402384
40	0x3a95338f	0.0011383164
41	0xbc026f3b	-0.00796109
42	0xbc53a47e	-0.012917636
43	0xbba6a844	-0.005085977
44	0x3b7b3c9e	0.0038335691
45	0xbafb1295	-0.0019155318
46	0xbb4975d9	-0.0030740409
47	0x3b2c3470	0.0026276372
48	0x3a5a874f	0.00083362026
49	0x3c50a1aa	0.012733856
50	0x3baf152d	0.0053431005
51	0x3c451d7a	0.012030954
52	0xbbc53678	-0.006018456
53	0xbb969e02	-0.0045964727
54	0x3c02c0d0	0.00798054
55	0x3a8301d2	0.0009995049
56	0xbc55a3dc	-0.013039555
57	0x3c55b81e	0.013044385
58	0xbc12c077	-0.00895702
59	0x39f081c6	0.00045873056
60	0x3b34859b	0.0027545455
61	0x3c0af355	0.008480866
62	0x3cc1b822	0.023647372
63	0x3ab12aba	0.0013516762
64	0x3b923c7c	0.0044627767
65	0xba757bf3	-0.0009364478
66	0x3bbf10af	0.0058308463
67	0xbc8a9b73	-0.016919827
68	0x3a21f920	0.0006178785
69	0xbcbc1f2f	-0.022964088
70	0xbc051c47	-0.008124418
71	0x3c04a097	0.008094928
72	0x3b86e49b	0.0041166074
73	0xbba51931	-0.0050384034
74	0x3c2ac466	0.010422802
75	0x3b8e89e6	0.004349935
76	0x3aada7db	0.0013248877
77	0xbc65909c	-0.014011528
78	0x3c918c5d	0.017767126
79	0xbc61a713	-0.013772744

conv.9.running_mean f4 [80]
0	0x3bb9e56f	0.0056731026
1	0xbbdd8055	-0.006759683
2	0x3adc77ea	0.0016820405
3	0x3aa25508	0.001238496
4	0x3b258e61	0.0025261866
5	0x3d14edba	0.036359526
6	0x3b0d2bad	0.0021540925
7	0xbbc6b5fc	-0.0060641747
8	0x3c62f7ab	0.013852994
9	0x3bd3f94c	0.0064689275
10	0xbc42b929	-0.011884966
11	0x3a3500c5	0.0006904717
12	0xb82bf0ae	-4.0993727e-05
13	0x3beb7966	0.0071861027
14	0x3d070fb4	0.03297396
15	0xbbbc5774	-0.00574773
16	0x3d117b38	0.0355179
17	0xbb74ae65	-0.0037335393
18	0x3ba60148	0.0050660707
19	0x3bc7f82b	0.006102582
20	0x3a6787ec	0.00088322046
21	0xb959603a	-0.0002073058
22	0xb99269a3	-0.00027925996
23	0xbb22237b	-0.0024740386
24	0x3c98825d	0.01861685
25	0x3bb7820a	0.0056002187
26	0x3b29aaa9	0.0025889075
27	0x3b968e52	0.0045946026
28	0xbbb44828	-0.0055017658
29	0xbbd04b60	-0.0063566417
30	0x389469bf	7.076887e-05
31	0xba7fbc70	-0.00097555574
32	0x39ebdd3b	0.00044987522
33	0x3a8ddefe	0.0010823903
34	0x3b42f20f	0.002974633
35	0xbbf67d43	-0.0075222566
36	0xbbf43279	-0.007452306
37	0x3b532db3	0.0032223284
38	0x3bcee02e	0.0063133454
39	0x3bfe91d4	0.007768849
40	0x3ad11ab7	0.0015953396
41	0x3a58f770	0.0008276617
42	0x3a47e93c	0.0007626002
43	0xb994790e	-0.00028318953
44	0x3b95f68b	0.0045765094
45	0x3b2a935b	0.0026027772
46	0x3890265f	6.873602e-05
47	0x3b9238fb	0.004462359
48	0x3b78da43	0.003797189
49	0x3a5c2f71	0.00083994033
50	0x3a55016f	0.0008125519
51	0xbb9985f7	-0.0046851593
52	0xbbaa267c	-0.005192576
53	0x39c3bee1	0.00037335514
54	0x3cf1e638	0.029528722
55	0x3d0d1015	0.034439165
56	0x3a906711	0.0011017044
57	0x3a08e56b	0.0005222174
58	0xbb16f498	-0.0023033973
59	0x3d0d2132	0.034455486
60	0xbbc8863c	-0.0061195176
61	0x3aa89914	0.0012863004
62	0x3bc2d755	0.0059460797
63	0x3b8ade74	0.0042379443
64	0xbbde7da2	-0.006789879
65	0x3c97f9c6	0.018551718
66	0x3d3988df	0.045296546
67	0x3d0dff30	0.034667194
68	0x3b2bdd47	0.002622442
69	0x3ad6c0b5	0.0016384335
70	0xbab71797	-0.0013968822
71	0xbc038a9c	-0.0080286525
72	0x3ab25f2c	0.0013608686
73	0x3b444a62	0.0029951562
74	0xbbe9c4ef	-0.007134072
75	0x3b8b423c	0.004249839
76	0x3c1c30bb	0.009533103
77	0xb8c433b7	-9.355641e-05
78	0xbbdbd28c	-0.0067084488
79	0x39b3c305	0.0003428684

conv.9.running_var f4 [80]
0	0x371fb74e	9.5198175e-06
1	0x3544d3e9	7.332406e-07
2	0x367aae16	3.7354234e-06
3	0x36d8aee8	6.4576634e-06
4	0x364c4fc5	3.04448e-06
5	0x372941d0	1.0088508e-05
6	0x36ee1415	7.0952906e-06
7	0x359fc309	1.1903186e-06
8	0x3715db07	8.932088e-06
9	0x371440c4	8.836567e-06
10	0x353d7d64	7.0590454e-07
11	0x369e5d53	4.7196313e-06
12	0x367cdb79	3.7678676e-06
13	0x376261d2	1.3493425e-05
14	0x37828049	1.5556945e-05
15	0x356b84c5	8.7737527e-07
16	0x377aeab9	1.4955812e-05
17	0x360f52a1	2.1356757e-06
18	0x36a75aef	4.987574e-06
19	0x36b7694d	5.4660836e-06
20	0x37070322	8.0473565e-06
21	0x36143da3	2.2089596e-06
22	0x361300f7	2.1905269e-06
23	0x358908fa	1.0209908e-06
24	0x374b9715	1.2134919e-05
25	0x37cc73e1	2.4372655e-05
26	0x371e1b80	9.423937e-06
27	0x36a803c3	5.007228e-06
28	0x35ae271e	1.2975395e-06
29	0x360c6f2e	2.092634e-06
30	0x365f6f2d	3.3294302e-06
31	0x35f599a5	1.8298639e-06
32	0x369522ce	4.444598e-06
33	0x36ab12c7	5.098383e-06
34	0x3771de0d	1.441642e-05
35	0x35874b52	1.0080205e-06
36	0x35b7335a	1.3649508e-06
37	0x377113fb	1.43693715e-05
38	0x369e4521	4.7168146e-06
39	0x37205668	9.556861e-06
40	0x36a0e0ce	4.7945423e-06
41	0x3683fc67	3.9334877e-06
42	0x371c7a14	9.326748e-06
43	0x37029687	7.783651e-06
44	0x379786ab	1.8063312e-05
45	0x3760fee6	1.3410789e-05
46	0x3657c618	3.2152802e-06
47	0x36d79579	6.4249e-06
48	0x378f9e2c	1.7120583e-05
49	0x37073a26	8.060166e-06
50	0x36b79ead	5.4722973e-06
51	0x355c0c77	8.1974525e-07
52	0x35d2dcf2	1.5710523e-06
53	0x365c915f	3.2867172e-06
54	0x375ddf1c	1.3224573e-05
55	0x37e51d02	2.7312435e-05
56	0x3701bd50	7.733077e-06
57	0x36900671	4.2922843e-06
58	0x35b2453a	1.3282181e-06
59	0x371c045a	9.299338e-06
60	0x3562361b	8.4270295e-07
61	0x3707086a	8.048586e-06
62	0x37c263c9	2.3173068e-05
63	0x37360f52	1.0851612e-05
64	0x35439630	7.286171e-07
65	0x36d9a604	6.4864307e-06
66	0x370bcbd6	8.332505e-06
67	0x37b029b9	2.1000264e-05
68	0x377575fc	1.4630608e-05
69	0x36f375ef	7.2556936e-06
70	0x359f7a1b	1.188196e-06
71	0x3536a488	6.803971e-07
72	0x365735a6	3.2068724e-06
73	0x37834684	1.5649253e-05
74	0x35b230b8	1.3276212e-06
75	0x36ba2645	5.547687e-06
76	0x376cfcc3	1.4125547e-05
77	0x3659af08	3.2437401e-06
78	0x35821f0d	9.694792e-07
79	0x3644990f	2.9295368e-06

conv.11.weight f4 [80, 80, 2, 2]
0	0x3d92a31e	0.071600184
1	0x3cbbf953	0.022946035
2	0x3bf8ab43	0.0075887754
3	0x3b7f9a69	0.0039001948
4	0x3c28bfb1	0.010299609
5	0xbd29a881	-0.041420463
6	0xbcd8fd79	-0.026488053
7	0x39f2767e	0.0004624612
8	0xbd3eb048	-0.046554834
9	0x3d2111b3	0.03932352
10	0xbc048dcc	-0.008090448
11	0x3b957761	0.00456135
12	0x3c922f9b	0.017844966
13	0x3d2a1d0b	0.041531604
14	0x3cef0066	0.029174995
15	0x3ce771ce	0.028252508
16	0xbcfd9e11	-0.030959161
17	0x3d37eff4	0.04490657
18	0x3b261b6c	0.0025345935
19	0xbd032e7a	-0.032026745
20	0x3d80902e	0.062775
21	0x3ccab6e0	0.024745405
22	0xbbc2a61d	-0.0059402124
23	0x3cb43278	0.021996722
24	0x3c80feb3	0.01574645
25	0xbce12b12	-0.027486358
26	0x3d83f966	0.06444053
27	0xbcd6cdce	-0.026221182
28	0x3c8771fc	0.016533844
29	0x3d34bf1c	0.04412757
30	0xbcfb777b	-0.030696621
31	0x3d52a7e0	0.05142963
32	0xbd237c33	-0.039913367
33	0xbb51cae8	-0.003201181
34	0xbd2bf7d1	-0.041984383
35	0x3d278691	0.040899817
36	0x3c408962	0.011751505
37	0xbd4c23bb	-0.049838763
38	0x3d100d2f	0.035168823
39	0x3c8e1998	0.017346188
40	0xbc7ac693	-0.015306133
41	0xbd3f192b	-0.04665486
42	0xbb3ed4f8	-0.0029118638
43	0xb9a4c0dc	-0.0003142421
44	0xbd5100c3	-0.051026117
45	0x3cb60c1e	0.022222575
46	0xbc6b80d4	-0.014373977
47	0xbc89a636	-0.016802888
48	0x3cd65b31	0.02616653
49	0xbbf54840	-0.0074854195
50	0x3d309c9b	0.0431181
51	0xbcb0413e	-0.021515485
52	0x3c29d61d	0.01036599
53	0x3bda50d9	0.00666247
54	0x3ca0432d	0.019563282
55	0x3bba33d5	0.0056824484
56	0x3c1acb7a	0.009447927
57	0x3d0b791f	0.034051057
58	0x3c9c5f1a	0.019088317
59	0xbce68270	-0.02813837
60	0xbd3bbd70	-0.04583496
61	0xba3e507f	-0.00072599197
62	0xbcee0591	-0.029055389
63	0x3c54ca0f	0.012987628
64	0x3d159775	0.036521394
65	0xbd3a77bd	-0.045524348
66	0x3d59c28f	0.05316406
67	0x3d1c2611	0.03812224
68	0x3d360967	0.04444256
69	0xbc639ba4	-0.013892088
70	0xbc1aa918	-0.009439729
71	0x3d5adf28	0.053435475
72	0xbc45e4f2	-0.012078511
73	0x3c239acc	0.009985637
74	0x3d006f0f	0.031355914
75	0xbc6320d7	-0.01386281
76	0xbd43a979	-0.047769044
77	0x3b250512	0.0025180024
78	0xbc088232	-0.008331822
79	0xbc4bf8b2	-0.01244943
80	0x3d7395bd	0.059468973
81	0x3d11a3c9	0.03555659
82	0x3bf9bda1	0.0076214825
83	0xbc04605c	-0.0080796145
84	0x3d06f893	0.032951903
85	0xbd3c1e50	-0.045927346
86	0xbd433e0e	-0.0476666
87	0x3d061a46	0.0327399
88	0xbcc93870	-0.024563044
89	0x3bc533bd	0.0060181306
90	0xbd2c08d9	-0.042000625
91	0x3c9766fb	0.018481722
92	0x3a5ac7d4	0.0008345817
93	0xbd11897b	-0.035531502
94	0x3b8a1590	0.004213996
95	0xbd526d2e	-0.051373653
96	0xbd5bbd3d	-0.05364727
97	0x3cea7c4d	0.028623724
98	0xbcb87130	-0.02251491
99	0xbd2693ac	-0.040668175
100	0xbcfc6626	-0.030810427
101	0x3b937dae	0.004501066
102	0x3ae48b0b	0.0017436458
103	0x3bad3bcc	0.0052866694
104	0x3d1af607	0.037832286
105	0x3c8da7d7	0.017291946
106	0x3c8c979c	0.017162137
107	0x3c5f8d50	0.013644531
108	0x3c2567cd	0.010095549
109	0xbd63e51b	-0.055638414
110	0xbd280180	-0.041017056
111	0xbd4eb35c	-0.05046402
112	0xbc1ae8a9	-0.009454885
113	0xbce857bd	-0.02836215
114	0x3d358fb3	0.044326495
115	0x3d09bf83	0.033629905
116	0xbcbdfdb5	-0.023192266
117	0x3d0f0791	0.034919325
118	0x3d5078ce	0.05089646
119	0x3c3e1a8a	0.011603007
120	0x3d51c4c7	0.051213052
121	0x3cbf48f5	0.023350218
122	0x3cc10208	0.023560539
123	0x3cf3ace8	0.029745534
124	0xbd27c6b5	-0.040960986
125	0x3d3a981d	0.045555223
126	0xbd3bf062	-0.045883544
127	0x3cb440d3	0.022003567
128	0xbb3639f2	-0.0027805534
129	0x3bb1b0db	0.005422694
130	0xbcbcec91	-0.023062022
131	0xbcbb9be5	-0.022901485
132	0xbd1031a2	-0.035203584
133	0x3b61c914	0.0034452127
134	0xbd3719b0	-0.044702232
135	0x3d073496	0.033009134
136	0x3cd3fb8a	0.02587678
137	0x3d16550a	0.036702193
138	0x3ca28d84	0.01984287
139	0xbc891118	-0.016731784
140	0xbc6258d5	-0.0138151245
141	0xbcd0af8b	-0.02547433
142	0xbd633bfb	-0.055477124
143	0x3d4717ec	0.048606798
144	0xbd678456	-0.05652269
145	0xbd682c40	-0.056682825
146	0x3cb69ca0	0.022291481
147	0xbbe4e7e7	-0.0069856527
148	0xbbe5445b	-0.006996674
149	0x3c2bea9c	0.010492947
150	0xbcfcd898	-0.030864999
151	0x3cb62690	0.022235185
152	0x3d1191f3	0.03553958
153	0x3d3e66d4	0.046484783
154	0x3d0d0cae	0.03443592
155	0xbc99b4ad	-0.01876291
156	0x3cfcfa34	0.030881025
157	0x3cd4b5b7	0.025965555
158	0x3cfb6d92	0.030691896
159	0x3c7bbdd8	0.0153650865
160	0xbd8431f0	-0.06454837
161	0x3abc5bfc	0.0014370675
162	0xbcd55676	-0.026042204
163	0xbd2df972	-0.042474218
164	0x3bb2f48c	0.005461281
165	0x3c9bbc7d	0.019010777
166	0x3c67c1ef	0.014145358
167	0xbd383236	-0.04496976
168	0xbd18e7e6	-0.03733053
169	0x3caa58fa	0.02079438
170	0x3d159795	0.036521513
171	0x3d2d7c60	0.04235494
172	0xbad7ad2d	-0.0016454809
173	0xbcaaac11	-0.020834
174	0x3c323753	0.010877448
175	0x3caab55a	0.020838428
176	0xbc2054c9	-0.009785839
177	0xbc4604cb	-0.012086104
178	0x3d003fb0	0.031310737
179	0xbd343a02	-0.044000633
180	0x3c858a6f	0.016301362
181	0xbbe7fd71	-0.007079773
182	0xba944072	-0.001131071
183	0xbd00a7f5	-0.031410176
184	0xbd2d1997	-0.042260733
185	0xbd3a22a9	-0.04544321
186	0xbaa93f8a	-0.0012912613
187	0xbd5a67fe	-0.05332183
188	0x3cb5c926	0.022190642
189	0x3d448187	0.04797509
190	0xbd05a06e	-0.0326237
191	0x3d0df951	0.034661595
192	0x3d610190	0.05493313
193	0x3c2e5dde	0.010642497
194	0xbaa0b415	-0.00122607
195	0x3d0202d7	0.03174099
196	0x3b6f7532	0.003653836
197	0x3d36b8c8	0.044609815
198	0x3c9f4c7e	0.019445654
199	0x3d44934e	0.047992043
200	0xbcb0fffc	-0.021606438
201	0x3af6fc5a	0.0018843517
202	0x3cc06b92	0.023488794
203	0xbccec045	-0.025238166
204	0x3d63127d	0.055437554
205	0xbd3d4b39	-0.046214316
206	0x3ce14155	0.027496973
207	0xbb9fc820	-0.0048761517
208	0x3c942f96	0.018089097
209	0xbd6ae418	-0.057346433
210	0xbd039547	-0.032124784
211	0xbb9c3b56	-0.0047678156
212	0x3cf30a84	0.0296681
213	0xbcc9f98c	-0.024655126
214	0xbd317620	-0.043325543
215	0xbd80b273	-0.062840365
216	0x3d2faa1a	0.04288683
217	0x3cc3fcfa	0.02392434
218	0xbccd21b3	-0.025040483
219	0xbd10ecb5	-0.03538199
220	0xbb181e78	-0.002321152
221	0xbd49a94e	-0.049233727
222	0xbc351169	-0.011051514
223	0x3d43840d	0.047733355
224	0xbcf07169	-0.029350953
225	0xbcdfeca0	-0.027334511
226	0xbc48e9e5	-0.012262796
227	0xbd066deb	-0.03281967
228	0x39b049aa	0.0003362422
229	0xbc8e3000	-0.017356873
230	0xbd3fea8b	-0.046854537
231	0x3bafd31c	0.0053657424
232	0x3d479a27	0.048730996
233	0x3c18e291	0.009331361
234	0x3c4a792a	0.012357989
235	0xbc2c616d	-0.010521275
236	0x3d819911	0.06328023
237	0x3c46ff4c	0.012145828
238	0xbbb398b8	-0.005480852
239	0xbcec9200	-0.028878212
240	0x3bbff949	0.0058585745
241	0xbd1a6887	-0.03769734
242	0xbd27412a	-0.04083363
243	0x3d40bd8e	0.047055773
244	0x3c24b73d	0.010053453
245	0x3b61c192	0.0034447652
246	0x3c549257	0.012974343
247	0x3d4a594f	0.049401578
248	0xbd6986be	-0.057013266
249	0x3d58de4e	0.05294638
250	0x3b7f04d9	0.0038912802
251	0xbc168927	-0.009187973
252	0x3d18ca65	0.037302393
253	0x3c03e8cf	0.008051111
254	0x3ccb37df	0.024806915
255	0xbcd59288	-0.026070848

conv.11.bias f4 [80]
0	0x3d875b6c	0.06609234
1	0xbcf9eecb	-0.030509373
2	0xbc30f490	-0.010800496
3	0xbd320382	-0.043460377
4	0x3d51a9b0	0.051187217
5	0xbc46de19	-0.012137913
6	0xbd01951f	-0.031636354
7	0x3cd9cb54	0.026586212
8	0x3d62794a	0.05529145
9	0x3bc16119	0.0059014675
10	0xbd5c66ab	-0.05380885
11	0x3c9fffd8	0.019531175
12	0xbd53e4c5	-0.051731844
13	0xbcfc5eda	-0.030806947
14	0x3d28b96a	0.04119245
15	0x3bf461f7	0.0074579674
16	0x3c1a7a49	0.009428569
17	0x3d06475b	0.032782894
18	0x3d47bf71	0.048766557
19	0xbc8b9516	-0.017038863
20	0x3d1ab965	0.037774462
21	0xbc03a179	-0.008034104
22	0x3d527dc0	0.051389456
23	0x3d9bb47c	0.07602784
24	0xbc9df1a6	-0.019280266
25	0x3d25378f	0.040336188
26	0xbb5df69d	-0.0033868917
27	0xbbb77daa	-0.005599697
28	0xbbb5c297	-0.0055468786
29	0x3d1d81ef	0.038453992
30	0xbd1d1529	-0.038350258
31	0xba880a1b	-0.0010378988
32	0x3cb99bf3	0.02265737
33	0x3d18bdb9	0.03729031
34	0x3c967e43	0.018370753
35	0x3d5a20d6	0.05325397
36	0x3cbdb2f4	0.02315662
37	0x3d46e82f	0.04856127
38	0x3d04b248	0.032396585
39	0x3a64e69e	0.00087318744
40	0x3d1604df	0.03662574
41	0x3d437085	0.04771473
42	0xbd28fd07	-0.04125693
43	0x3cba8f29	0.022773342
44	0xbcc4ec17	-0.024038358
45	0xbc8888aa	-0.016666729
46	0xbd832c66	-0.06404953
47	0x3d45101c	0.048111066
48	0xbcf0f1ff	-0.029412268
49	0xbd193238	-0.037401408
50	0xbc68b03c	-0.014202174
51	0x3d384846	0.0449908
52	0xbceda26e	-0.029008117
53	0xbc68b333	-0.014202881
54	0x3d80d669	0.062908955
55	0xbcc5b1c9	-0.024132626
56	0x3b91a332	0.004444503
57	0x3cad0c68	0.02112408
58	0x3bd3ad21	0.0064598476
59	0x3d3b38a2	0.045708306
60	0x3d01519e	0.031571977
61	0x3cde49b5	0.027134756
62	0x3d8c9b74	0.06865588
63	0xbd1d643e	-0.038425677
64	0xbbd2070b	-0.006409531
65	0xbcd3b7df	-0.025844513
66	0xbcde2977	-0.027119381
67	0xbcb3b54b	-0.021937033
68	0x3d47ad0e	0.048749022
69	0xbd108b5d	-0.035289157
70	0x3b90408d	0.0044022263
71	0xbc897ca7	-0.016783072
72	0x3d33877c	0.04383038
73	0xbd3e73be	-0.0464971
74	0x3ac13de1	0.0014743173
75	0x3cba2138	0.022720918
76	0x3c2390f1	0.009983287
77	0xbc2914f8	-0.010319941
78	0x3acad175	0.00154738
79	0xbcac8cbd	-0.021063203

conv.12.weight f4 [80]
0	0x3e7fa107	0.24963771
1	0x3e80543c	0.25064266
2	0x3e6cce94	0.23125678
3	0x3e6efb21	0.23337986
4	0x3e7b48bd	0.24539466
5	0x3e81181e	0.25213712
6	0x3e77d306	0.24201593
7	0x3e709b13	0.23496656
8	0x3e6dcac8	0.23221886
9	0x3e7eed39	0.24895181
10	0x3e71a250	0.23597074
11	0x3e7c9fef	0.24670385
12	0x3e7cec1d	0.24699445
13	0x3e7a2ad6	0.24430403
14	0x3e7f1393	0.2490981
15	0x3e76c2a7	0.24097691
16	0x3e80f449	0.25186375
17	0x3e5b9fcf	0.21447681
18	0x3e7f326a	0.24921575
19	0x3e7c64c3	0.24647813
20	0x3e7e7fb4	0.24853402
21	0x3e7dfaca	0.248027
22	0x3e824124	0.25440323
23	0x3e72583d	0.23666473
24	0x3e81292d	0.25226727
25	0x3e80640e	0.25076336
26	0x3e824fbe	0.25451463
27	0x3e701cd3	0.23448496
28	0x3e7606fb	0.240261
29	0x3e7db020	0.24774218
30	0x3e70efb7	0.23528944
31	0x3e776c52	0.24162415
32	0x3e7809e2	0.2422252
33	0x3e7e6035	0.24841388
34	0x3e710e15	0.23540528
35	0x3e6bd3b7	0.23029982
36	0x3e819545	0.25309196
37	0x3e73732f	0.23774408
38	0x3e76eb69	0.2411324
39	0x3e7e2862	0.24820092
40	0x3e80192a	0.250192
41	0x3e812b88	0.25228524
42	0x3e7d1a12	0.24716976
43	0x3e71b8fa	0.23605719
44	0x3e7827b0	0.2423389
45	0x3e7b689a	0.24551621
46	0x3e794286	0.24341783
47	0x3e7f734c	0.24946326
48	0x3e7cddf9	0.24694051
49	0x3e808cd0	0.2510743
50	0x3e75f29d	0.24018331
51	0x3e6daea1	0.23211147
52	0x3e7743e1	0.24146987
53	0x3e61d672	0.2205446
54	0x3e797681	0.24361612
55	0x3e81c1af	0.2534308
56	0x3e7f0923	0.24905829
57	0x3e747df7	0.23876177
58	0x3e1b8286	0.1518651
59	0x3e80c320	0.2514887
60	0x3e5a6d83	0.21330838
61	0x3e6792fa	0.22614661
62	0x3e80ea45	0.25178733
63	0x3e73f868	0.23825228
64	0x3e82e618	0.25566173
65	0x3e6e8d70	0.23296142
66	0x3e7f3a5e	0.24924609
67	0x3e7fa354	0.24964648
68	0x3e7bedf3	0.24602489
69	0x3e7a0b55	0.24418385
70	0x3e7cb1ef	0.24677251
71	0x3e51abad	0.20475645
72	0x3e6ad479	0.22932614
73	0x3e7e449d	0.24830861
74	0x3e814e64	0.2525512
75	0x3e80188a	0.25018722
76	0x3e7d4cba	0.247363
77	0x3e632e66	0.22185668
78	0x3e77bf44	0.24194056
79	0x3e7b774f	0.24557231
